…
	reg = 1e-05
	restart = False
	root_dir = /Users/isaachenrion/x/research/graphs/models
	scales = None
	sched = m1
	seed = 18171
	silent = False
	slurm = True
	slurm_array_job_id = 5526078
	slurm_array_task_id = 1
	tied = False
	train = True
	trainable_physics = False
	update = gru
	verbose = False
	visualizing = False
	wn = False


Git commit = 1de8b96
	PID = 45342
	Running on GPU
Loading data...
	Data already preprocessed
	Data loaded in 5.6 seconds
	Data already preprocessed
	Data loaded in 0.1 seconds
	final train size = 1899
	final valid size = 217
Initializing model...
GraphGen(
  (initial_embedding): Linear(in_features=42, out_features=32, bias=True)
  (nmp_blocks): ModuleList(
    (0): NMPBlock(
      (spatial_embedding): Linear(in_features=32, out_features=3, bias=True)
      (conv1d): BasicBlock(
        (group1): Sequential(
          (conv1): Conv1d(32, 32, kernel_size=(1,), stride=(1,), bias=False)
          (bn1): BatchNorm1d(32, eps=1e-05, momentum=0.1, affine=True)
          (relu1): ReLU(inplace)
          (conv2): Conv1d(32, 32, kernel_size=(17,), stride=(1,), padding=(8,), bias=False)
          (bn2): BatchNorm1d(32, eps=1e-05, momentum=0.1, affine=True)
        )
        (relu): Sequential(
          (0): ReLU(inplace)
        )
      )
      (message): Sequential(
        (0): Linear(in_features=32, out_features=32, bias=True)
        (1): ReLU(inplace)
      )
      (update): GRUUpdate(
        (gru): AnyBatchGRUCell(
          (linear_ih): Linear(in_features=64, out_features=96, bias=True)
          (linear_hh): Linear(in_features=32, out_features=96, bias=True)
        )
      )
    )
    (1): NMPBlock(
      (spatial_embedding): Linear(in_features=32, out_features=3, bias=True)
      (conv1d): BasicBlock(
        (group1): Sequential(
          (conv1): Conv1d(32, 32, kernel_size=(1,), stride=(1,), bias=False)
          (bn1): BatchNorm1d(32, eps=1e-05, momentum=0.1, affine=True)
          (relu1): ReLU(inplace)
          (conv2): Conv1d(32, 32, kernel_size=(17,), stride=(1,), padding=(8,), bias=False)
          (bn2): BatchNorm1d(32, eps=1e-05, momentum=0.1, affine=True)
        )
        (relu): Sequential(
          (0): ReLU(inplace)
        )
      )
      (message): Sequential(
        (0): Linear(in_features=32, out_features=32, bias=True)
        (1): ReLU(inplace)
      )
      (update): GRUUpdate(
        (gru): AnyBatchGRUCell(
          (linear_ih): Linear(in_features=64, out_features=96, bias=True)
          (linear_hh): Linear(in_features=32, out_features=96, bias=True)
        )
      )
    )
    (2): NMPBlock(
      (spatial_embedding): Linear(in_features=32, out_features=3, bias=True)
      (conv1d): BasicBlock(
        (group1): Sequential(
          (conv1): Conv1d(32, 32, kernel_size=(1,), stride=(1,), bias=False)
          (bn1): BatchNorm1d(32, eps=1e-05, momentum=0.1, affine=True)
          (relu1): ReLU(inplace)
          (conv2): Conv1d(32, 32, kernel_size=(17,), stride=(1,), padding=(8,), bias=False)
          (bn2): BatchNorm1d(32, eps=1e-05, momentum=0.1, affine=True)
        )
        (relu): Sequential(
          (0): ReLU(inplace)
        )
      )
      (message): Sequential(
        (0): Linear(in_features=32, out_features=32, bias=True)
        (1): ReLU(inplace)
      )
      (update): GRUUpdate(
        (gru): AnyBatchGRUCell(
          (linear_ih): Linear(in_features=64, out_features=96, bias=True)
          (linear_hh): Linear(in_features=32, out_features=96, bias=True)
        )
      )
    )
    (3): NMPBlock(
      (spatial_embedding): Linear(in_features=32, out_features=3, bias=True)
      (conv1d): BasicBlock(
        (group1): Sequential(
          (conv1): Conv1d(32, 32, kernel_size=(1,), stride=(1,), bias=False)
          (bn1): BatchNorm1d(32, eps=1e-05, momentum=0.1, affine=True)
          (relu1): ReLU(inplace)
          (conv2): Conv1d(32, 32, kernel_size=(17,), stride=(1,), padding=(8,), bias=False)
          (bn2): BatchNorm1d(32, eps=1e-05, momentum=0.1, affine=True)
        )
        (relu): Sequential(
          (0): ReLU(inplace)
        )
      )
      (message): Sequential(
        (0): Linear(in_features=32, out_features=32, bias=True)
        (1): ReLU(inplace)
      )
      (update): GRUUpdate(
        (gru): AnyBatchGRUCell(
          (linear_ih): Linear(in_features=64, out_features=96, bias=True)
          (linear_hh): Linear(in_features=32, out_features=96, bias=True)
        )
      )
    )
  )
  (final_spatial_embedding): Linear(in_features=32, out_features=3, bias=True)
)
Number of parameters: 117967
Moving model to GPU
Moved model to GPU
***********
Building optimizer and scheduler...
Optimizer is adam
lr: 0.001
weight_decay: 1e-05
***********
Scheduler is m1
milestones: [16, 32, 48]
gamma: 0.7
***********
Training...
Epoch	1/64
lr = 0.00100000
findfont: Matching :family=sans-serif:style=normal:variant=normal:weight=normal:stretch=normal:size=10.0 to DejaVu Sans ('/home/ih692/anaconda3/envs/jets/lib/python3.6/site-packages/matplotlib/mpl-data/fonts/ttf/DejaVuSans.ttf') with score of 0.050000
…
