…
2018-03-27 06:04:16,988 	visualizing = False
2018-03-27 06:04:16,989 	wn = False
2018-03-27 06:04:16,989 	PID = 15654
2018-03-27 06:04:16,990 	Running on GPU
2018-03-27 06:04:16,991 Loading data...
2018-03-27 06:04:16,992 Data loaded and already preprocessed
2018-03-27 06:04:20,883 Splitting into train and validation...
2018-03-27 06:04:21,267 	final train size = 89900
2018-03-27 06:04:21,268 	final valid size = 10099
2018-03-27 06:04:21,270 Initializing model...
2018-03-27 06:04:23,754 LeafJetClassifier(
  (transform): FixedNMP(
    (embedding): NLayer(
      (activation): LeakyReLU(0.01)
      (fcs): ModuleList(
        (0): Linear(in_features=8, out_features=64)
      )
    )
    (mp_layers): ModuleList(
      (0): MPSimple(
        (activation): LeakyReLU(0.01)
        (vertex_update): GRUUpdate(
          (gru): AnyBatchGRUCell(
            (linear_ih): Linear(in_features=64, out_features=192)
            (linear_hh): Linear(in_features=64, out_features=192)
          )
        )
        (message): NLayer(
          (activation): LeakyReLU(0.01)
          (fcs): ModuleList(
            (0): Linear(in_features=64, out_features=64)
            (1): Linear(in_features=64, out_features=64)
          )
        )
      )
      (1): MPSimple(
        (activation): LeakyReLU(0.01)
        (vertex_update): GRUUpdate(
          (gru): AnyBatchGRUCell(
            (linear_ih): Linear(in_features=64, out_features=192)
            (linear_hh): Linear(in_features=64, out_features=192)
          )
        )
        (message): NLayer(
          (activation): LeakyReLU(0.01)
          (fcs): ModuleList(
            (0): Linear(in_features=64, out_features=64)
            (1): Linear(in_features=64, out_features=64)
          )
        )
      )
      (2): MPSimple(
        (activation): LeakyReLU(0.01)
        (vertex_update): GRUUpdate(
          (gru): AnyBatchGRUCell(
            (linear_ih): Linear(in_features=64, out_features=192)
            (linear_hh): Linear(in_features=64, out_features=192)
          )
        )
        (message): NLayer(
          (activation): LeakyReLU(0.01)
          (fcs): ModuleList(
            (0): Linear(in_features=64, out_features=64)
            (1): Linear(in_features=64, out_features=64)
          )
        )
      )
      (3): MPSimple(
        (activation): LeakyReLU(0.01)
        (vertex_update): GRUUpdate(
          (gru): AnyBatchGRUCell(
            (linear_ih): Linear(in_features=64, out_features=192)
            (linear_hh): Linear(in_features=64, out_features=192)
          )
        )
        (message): NLayer(
          (activation): LeakyReLU(0.01)
          (fcs): ModuleList(
            (0): Linear(in_features=64, out_features=64)
            (1): Linear(in_features=64, out_features=64)
          )
        )
      )
      (4): MPSimple(
        (activation): LeakyReLU(0.01)
        (vertex_update): GRUUpdate(
          (gru): AnyBatchGRUCell(
            (linear_ih): Linear(in_features=64, out_features=192)
            (linear_hh): Linear(in_features=64, out_features=192)
          )
        )
        (message): NLayer(
          (activation): LeakyReLU(0.01)
          (fcs): ModuleList(
            (0): Linear(in_features=64, out_features=64)
            (1): Linear(in_features=64, out_features=64)
          )
        )
      )
      (5): MPSimple(
        (activation): LeakyReLU(0.01)
        (vertex_update): GRUUpdate(
          (gru): AnyBatchGRUCell(
            (linear_ih): Linear(in_features=64, out_features=192)
            (linear_hh): Linear(in_features=64, out_features=192)
          )
        )
        (message): NLayer(
          (activation): LeakyReLU(0.01)
          (fcs): ModuleList(
            (0): Linear(in_features=64, out_features=64)
            (1): Linear(in_features=64, out_features=64)
          )
        )
      )
      (6): MPSimple(
        (activation): LeakyReLU(0.01)
        (vertex_update): GRUUpdate(
          (gru): AnyBatchGRUCell(
            (linear_ih): Linear(in_features=64, out_features=192)
            (linear_hh): Linear(in_features=64, out_features=192)
          )
        )
        (message): NLayer(
          (activation): LeakyReLU(0.01)
          (fcs): ModuleList(
            (0): Linear(in_features=64, out_features=64)
            (1): Linear(in_features=64, out_features=64)
          )
        )
      )
      (7): MPSimple(
        (activation): LeakyReLU(0.01)
        (vertex_update): GRUUpdate(
          (gru): AnyBatchGRUCell(
            (linear_ih): Linear(in_features=64, out_features=192)
            (linear_hh): Linear(in_features=64, out_features=192)
          )
        )
        (message): NLayer(
          (activation): LeakyReLU(0.01)
          (fcs): ModuleList(
            (0): Linear(in_features=64, out_features=64)
            (1): Linear(in_features=64, out_features=64)
          )
        )
      )
      (8): MPSimple(
        (activation): LeakyReLU(0.01)
        (vertex_update): GRUUpdate(
          (gru): AnyBatchGRUCell(
            (linear_ih): Linear(in_features=64, out_features=192)
            (linear_hh): Linear(in_features=64, out_features=192)
          )
        )
        (message): NLayer(
          (activation): LeakyReLU(0.01)
          (fcs): ModuleList(
            (0): Linear(in_features=64, out_features=64)
            (1): Linear(in_features=64, out_features=64)
          )
        )
      )
      (9): MPSimple(
        (activation): LeakyReLU(0.01)
        (vertex_update): GRUUpdate(
          (gru): AnyBatchGRUCell(
            (linear_ih): Linear(in_features=64, out_features=192)
            (linear_hh): Linear(in_features=64, out_features=192)
          )
        )
        (message): NLayer(
          (activation): LeakyReLU(0.01)
          (fcs): ModuleList(
            (0): Linear(in_features=64, out_features=64)
            (1): Linear(in_features=64, out_features=64)
          )
        )
      )
    )
    (readout): DTNNReadout(
      (fc1): Linear(in_features=64, out_features=64)
      (fc2): Linear(in_features=64, out_features=64)
    )
    (adjacency_matrix): FixedPhysicsAdjacency(
    )
  )
  (predictor): ClassificationReadout(
    (fc): Linear(in_features=64, out_features=1)
  )
)
2018-03-27 06:04:23,772 Number of parameters: 341761
2018-03-27 06:04:23,773 Moving model to GPU
2018-03-27 06:04:23,785 Moved model to GPU
2018-03-27 06:04:23,786 ***********
2018-03-27 06:04:23,787 Building optimizer and scheduler...
2018-03-27 06:04:23,787 Optimizer is adam
2018-03-27 06:04:23,788 lr: 0.001
2018-03-27 06:04:23,788 weight_decay: 1e-05
2018-03-27 06:04:23,788 ***********
…
