…
2018-03-27 05:59:18,238 	visualizing = False
2018-03-27 05:59:18,239 	wn = False
2018-03-27 05:59:18,239 	PID = 18229
2018-03-27 05:59:18,240 	Running on GPU
2018-03-27 05:59:18,241 Loading data...
2018-03-27 05:59:18,242 Data loaded and already preprocessed
2018-03-27 05:59:22,189 Splitting into train and validation...
2018-03-27 05:59:22,602 	final train size = 89900
2018-03-27 05:59:22,603 	final valid size = 10099
2018-03-27 05:59:22,605 Initializing model...
2018-03-27 05:59:25,524 LeafJetClassifier(
  (transform): FixedNMP(
    (embedding): NLayer(
      (activation): LeakyReLU(0.01)
      (fcs): ModuleList(
        (0): Linear(in_features=8, out_features=64)
      )
    )
    (mp_layers): ModuleList(
      (0): MPSimple(
        (activation): LeakyReLU(0.01)
        (vertex_update): GRUUpdate(
          (gru): AnyBatchGRUCell(
            (linear_ih): Linear(in_features=64, out_features=192)
            (linear_hh): Linear(in_features=64, out_features=192)
          )
        )
        (message): NLayer(
          (activation): LeakyReLU(0.01)
          (fcs): ModuleList(
            (0): Linear(in_features=64, out_features=64)
            (1): Linear(in_features=64, out_features=64)
          )
        )
      )
      (1): MPSimple(
        (activation): LeakyReLU(0.01)
        (vertex_update): GRUUpdate(
          (gru): AnyBatchGRUCell(
            (linear_ih): Linear(in_features=64, out_features=192)
            (linear_hh): Linear(in_features=64, out_features=192)
          )
        )
        (message): NLayer(
          (activation): LeakyReLU(0.01)
          (fcs): ModuleList(
            (0): Linear(in_features=64, out_features=64)
            (1): Linear(in_features=64, out_features=64)
          )
        )
      )
      (2): MPSimple(
        (activation): LeakyReLU(0.01)
        (vertex_update): GRUUpdate(
          (gru): AnyBatchGRUCell(
            (linear_ih): Linear(in_features=64, out_features=192)
            (linear_hh): Linear(in_features=64, out_features=192)
          )
        )
        (message): NLayer(
          (activation): LeakyReLU(0.01)
          (fcs): ModuleList(
            (0): Linear(in_features=64, out_features=64)
            (1): Linear(in_features=64, out_features=64)
          )
        )
      )
      (3): MPSimple(
        (activation): LeakyReLU(0.01)
        (vertex_update): GRUUpdate(
          (gru): AnyBatchGRUCell(
            (linear_ih): Linear(in_features=64, out_features=192)
            (linear_hh): Linear(in_features=64, out_features=192)
          )
        )
        (message): NLayer(
          (activation): LeakyReLU(0.01)
          (fcs): ModuleList(
            (0): Linear(in_features=64, out_features=64)
            (1): Linear(in_features=64, out_features=64)
          )
        )
      )
      (4): MPSimple(
        (activation): LeakyReLU(0.01)
        (vertex_update): GRUUpdate(
          (gru): AnyBatchGRUCell(
            (linear_ih): Linear(in_features=64, out_features=192)
            (linear_hh): Linear(in_features=64, out_features=192)
          )
        )
        (message): NLayer(
          (activation): LeakyReLU(0.01)
          (fcs): ModuleList(
            (0): Linear(in_features=64, out_features=64)
            (1): Linear(in_features=64, out_features=64)
          )
        )
      )
      (5): MPSimple(
        (activation): LeakyReLU(0.01)
        (vertex_update): GRUUpdate(
          (gru): AnyBatchGRUCell(
            (linear_ih): Linear(in_features=64, out_features=192)
            (linear_hh): Linear(in_features=64, out_features=192)
          )
        )
        (message): NLayer(
          (activation): LeakyReLU(0.01)
          (fcs): ModuleList(
            (0): Linear(in_features=64, out_features=64)
            (1): Linear(in_features=64, out_features=64)
          )
        )
      )
      (6): MPSimple(
        (activation): LeakyReLU(0.01)
        (vertex_update): GRUUpdate(
          (gru): AnyBatchGRUCell(
            (linear_ih): Linear(in_features=64, out_features=192)
            (linear_hh): Linear(in_features=64, out_features=192)
          )
        )
        (message): NLayer(
          (activation): LeakyReLU(0.01)
          (fcs): ModuleList(
            (0): Linear(in_features=64, out_features=64)
            (1): Linear(in_features=64, out_features=64)
          )
        )
      )
      (7): MPSimple(
        (activation): LeakyReLU(0.01)
        (vertex_update): GRUUpdate(
          (gru): AnyBatchGRUCell(
            (linear_ih): Linear(in_features=64, out_features=192)
            (linear_hh): Linear(in_features=64, out_features=192)
          )
        )
        (message): NLayer(
          (activation): LeakyReLU(0.01)
          (fcs): ModuleList(
            (0): Linear(in_features=64, out_features=64)
            (1): Linear(in_features=64, out_features=64)
          )
        )
      )
      (8): MPSimple(
        (activation): LeakyReLU(0.01)
        (vertex_update): GRUUpdate(
          (gru): AnyBatchGRUCell(
            (linear_ih): Linear(in_features=64, out_features=192)
            (linear_hh): Linear(in_features=64, out_features=192)
          )
        )
        (message): NLayer(
          (activation): LeakyReLU(0.01)
          (fcs): ModuleList(
            (0): Linear(in_features=64, out_features=64)
            (1): Linear(in_features=64, out_features=64)
          )
        )
      )
      (9): MPSimple(
        (activation): LeakyReLU(0.01)
        (vertex_update): GRUUpdate(
          (gru): AnyBatchGRUCell(
            (linear_ih): Linear(in_features=64, out_features=192)
            (linear_hh): Linear(in_features=64, out_features=192)
          )
        )
        (message): NLayer(
          (activation): LeakyReLU(0.01)
          (fcs): ModuleList(
            (0): Linear(in_features=64, out_features=64)
            (1): Linear(in_features=64, out_features=64)
          )
        )
      )
    )
    (readout): DTNNReadout(
      (fc1): Linear(in_features=64, out_features=64)
      (fc2): Linear(in_features=64, out_features=64)
    )
    (adjacency_matrix): FixedPhysicsAdjacency(
    )
  )
  (predictor): ClassificationReadout(
    (fc): Linear(in_features=64, out_features=1)
  )
)
2018-03-27 05:59:25,542 Number of parameters: 341761
2018-03-27 05:59:25,543 Moving model to GPU
2018-03-27 05:59:25,555 Moved model to GPU
2018-03-27 05:59:25,556 ***********
2018-03-27 05:59:25,557 Building optimizer and scheduler...
2018-03-27 05:59:25,557 Optimizer is adam
2018-03-27 05:59:25,557 lr: 0.001
2018-03-27 05:59:25,558 weight_decay: 1e-05
2018-03-27 05:59:25,558 ***********
…
