…
2018-03-27 21:16:09,811 E:	max = 23.37	min = -0.44	mean = -0.02	std = 0.91
2018-03-27 21:16:09,811 E/sumE:	max = 25.36	min = -0.45	mean = 0.00	std = 0.96
2018-03-27 21:16:09,811 pt:	max = 23.36	min = -0.44	mean = -0.02	std = 0.91
2018-03-27 21:16:09,811 theta:	max = 4.95	min = -4.67	mean = 0.01	std = 1.00
2018-03-27 21:16:09,816 	final train size = 89901
2018-03-27 21:16:09,817 	final valid size = 10099
2018-03-27 21:16:09,818 Initializing model...
2018-03-27 21:16:12,527 LeafJetClassifier(
  (transform): FixedNMP(
    (embedding): NLayer(
      (activation): LeakyReLU(0.01)
      (fcs): ModuleList(
        (0): Linear(in_features=8, out_features=64)
      )
    )
    (mp_layers): ModuleList(
      (0): MPSimple(
        (activation): LeakyReLU(0.01)
        (vertex_update): GRUUpdate(
          (gru): AnyBatchGRUCell(
            (linear_ih): Linear(in_features=64, out_features=192)
            (linear_hh): Linear(in_features=64, out_features=192)
          )
        )
        (message): NLayer(
          (activation): LeakyReLU(0.01)
          (fcs): ModuleList(
            (0): Linear(in_features=64, out_features=64)
            (1): Linear(in_features=64, out_features=64)
          )
        )
      )
      (1): MPSimple(
        (activation): LeakyReLU(0.01)
        (vertex_update): GRUUpdate(
          (gru): AnyBatchGRUCell(
            (linear_ih): Linear(in_features=64, out_features=192)
            (linear_hh): Linear(in_features=64, out_features=192)
          )
        )
        (message): NLayer(
          (activation): LeakyReLU(0.01)
          (fcs): ModuleList(
            (0): Linear(in_features=64, out_features=64)
            (1): Linear(in_features=64, out_features=64)
          )
        )
      )
      (2): MPSimple(
        (activation): LeakyReLU(0.01)
        (vertex_update): GRUUpdate(
          (gru): AnyBatchGRUCell(
            (linear_ih): Linear(in_features=64, out_features=192)
            (linear_hh): Linear(in_features=64, out_features=192)
          )
        )
        (message): NLayer(
          (activation): LeakyReLU(0.01)
          (fcs): ModuleList(
            (0): Linear(in_features=64, out_features=64)
            (1): Linear(in_features=64, out_features=64)
          )
        )
      )
      (3): MPSimple(
        (activation): LeakyReLU(0.01)
        (vertex_update): GRUUpdate(
          (gru): AnyBatchGRUCell(
            (linear_ih): Linear(in_features=64, out_features=192)
            (linear_hh): Linear(in_features=64, out_features=192)
          )
        )
        (message): NLayer(
          (activation): LeakyReLU(0.01)
          (fcs): ModuleList(
            (0): Linear(in_features=64, out_features=64)
            (1): Linear(in_features=64, out_features=64)
          )
        )
      )
      (4): MPSimple(
        (activation): LeakyReLU(0.01)
        (vertex_update): GRUUpdate(
          (gru): AnyBatchGRUCell(
            (linear_ih): Linear(in_features=64, out_features=192)
            (linear_hh): Linear(in_features=64, out_features=192)
          )
        )
        (message): NLayer(
          (activation): LeakyReLU(0.01)
          (fcs): ModuleList(
            (0): Linear(in_features=64, out_features=64)
            (1): Linear(in_features=64, out_features=64)
          )
        )
      )
      (5): MPSimple(
        (activation): LeakyReLU(0.01)
        (vertex_update): GRUUpdate(
          (gru): AnyBatchGRUCell(
            (linear_ih): Linear(in_features=64, out_features=192)
            (linear_hh): Linear(in_features=64, out_features=192)
          )
        )
        (message): NLayer(
          (activation): LeakyReLU(0.01)
          (fcs): ModuleList(
            (0): Linear(in_features=64, out_features=64)
            (1): Linear(in_features=64, out_features=64)
          )
        )
      )
      (6): MPSimple(
        (activation): LeakyReLU(0.01)
        (vertex_update): GRUUpdate(
          (gru): AnyBatchGRUCell(
            (linear_ih): Linear(in_features=64, out_features=192)
            (linear_hh): Linear(in_features=64, out_features=192)
          )
        )
        (message): NLayer(
          (activation): LeakyReLU(0.01)
          (fcs): ModuleList(
            (0): Linear(in_features=64, out_features=64)
            (1): Linear(in_features=64, out_features=64)
          )
        )
      )
      (7): MPSimple(
        (activation): LeakyReLU(0.01)
        (vertex_update): GRUUpdate(
          (gru): AnyBatchGRUCell(
            (linear_ih): Linear(in_features=64, out_features=192)
            (linear_hh): Linear(in_features=64, out_features=192)
          )
        )
        (message): NLayer(
          (activation): LeakyReLU(0.01)
          (fcs): ModuleList(
            (0): Linear(in_features=64, out_features=64)
            (1): Linear(in_features=64, out_features=64)
          )
        )
      )
    )
    (readout): DTNNReadout(
      (fc1): Linear(in_features=64, out_features=64)
      (fc2): Linear(in_features=64, out_features=64)
    )
    (adjacency_matrix): FixedPhysicsAdjacency(
    )
  )
  (predictor): ClassificationReadout(
    (fc): Linear(in_features=64, out_features=1)
  )
)
2018-03-27 21:16:12,531 Number of parameters: 275201
2018-03-27 21:16:12,531 Moving model to GPU
2018-03-27 21:16:12,535 Moved model to GPU
2018-03-27 21:16:12,535 ***********
2018-03-27 21:16:12,535 Building optimizer and scheduler...
2018-03-27 21:16:12,535 Optimizer is adam
2018-03-27 21:16:12,535 lr: 0.001
2018-03-27 21:16:12,536 weight_decay: 1e-05
2018-03-27 21:16:12,536 ***********
…
